…
      "outputs": [
        {
          "output_type": "stream",
          "text": [
            "Downloading data from https://github.com/fchollet/deep-learning-models/releases/download/v0.1/vgg19_weights_tf_dim_ordering_tf_kernels_notop.h5\n",
            "80142336/80134624 [==============================] - 3s 0us/step\n",
            "_________________________________________________________________\n",
            "Layer (type)                 Output Shape              Param #   \n",
            "=================================================================\n",
            "input_1 (InputLayer)         (None, 150, 150, 3)       0         \n",
            "_________________________________________________________________\n",
            "block1_conv1 (Conv2D)        (None, 150, 150, 64)      1792      \n",
            "_________________________________________________________________\n",
            "block1_conv2 (Conv2D)        (None, 150, 150, 64)      36928     \n",
            "_________________________________________________________________\n",
            "block1_pool (MaxPooling2D)   (None, 75, 75, 64)        0         \n",
            "_________________________________________________________________\n",
            "block2_conv1 (Conv2D)        (None, 75, 75, 128)       73856     \n",
            "_________________________________________________________________\n",
            "block2_conv2 (Conv2D)        (None, 75, 75, 128)       147584    \n",
            "_________________________________________________________________\n",
            "block2_pool (MaxPooling2D)   (None, 37, 37, 128)       0         \n",
            "_________________________________________________________________\n",
            "block3_conv1 (Conv2D)        (None, 37, 37, 256)       295168    \n",
            "_________________________________________________________________\n",
            "block3_conv2 (Conv2D)        (None, 37, 37, 256)       590080    \n",
            "_________________________________________________________________\n",
            "block3_conv3 (Conv2D)        (None, 37, 37, 256)       590080    \n",
            "_________________________________________________________________\n",
            "block3_conv4 (Conv2D)        (None, 37, 37, 256)       590080    \n",
            "_________________________________________________________________\n",
            "block3_pool (MaxPooling2D)   (None, 18, 18, 256)       0         \n",
            "_________________________________________________________________\n",
            "block4_conv1 (Conv2D)        (None, 18, 18, 512)       1180160   \n",
            "_________________________________________________________________\n",
            "block4_conv2 (Conv2D)        (None, 18, 18, 512)       2359808   \n",
            "_________________________________________________________________\n",
            "block4_conv3 (Conv2D)        (None, 18, 18, 512)       2359808   \n",
            "_________________________________________________________________\n",
            "block4_conv4 (Conv2D)        (None, 18, 18, 512)       2359808   \n",
            "_________________________________________________________________\n",
            "block4_pool (MaxPooling2D)   (None, 9, 9, 512)         0         \n",
            "_________________________________________________________________\n",
            "block5_conv1 (Conv2D)        (None, 9, 9, 512)         2359808   \n",
            "_________________________________________________________________\n",
            "block5_conv2 (Conv2D)        (None, 9, 9, 512)         2359808   \n",
            "_________________________________________________________________\n",
            "block5_conv3 (Conv2D)        (None, 9, 9, 512)         2359808   \n",
            "_________________________________________________________________\n",
            "block5_conv4 (Conv2D)        (None, 9, 9, 512)         2359808   \n",
            "_________________________________________________________________\n",
            "block5_pool (MaxPooling2D)   (None, 4, 4, 512)         0         \n",
            "=================================================================\n",
            "Total params: 20,024,384\n",
            "Trainable params: 20,024,384\n",
            "Non-trainable params: 0\n",
            "_________________________________________________________________\n",
            "None\n",
            "_________________________________________________________________\n",
            "Layer (type)                 Output Shape              Param #   \n",
            "=================================================================\n",
            "vgg19 (Model)                (None, 4, 4, 512)         20024384  \n",
            "_________________________________________________________________\n",
            "flatten_1 (Flatten)          (None, 8192)              0         \n",
            "_________________________________________________________________\n",
            "dense_1 (Dense)              (None, 256)               2097408   \n",
            "_________________________________________________________________\n",
            "dense_2 (Dense)              (None, 29)                7453      \n",
            "=================================================================\n",
            "Total params: 22,129,245\n",
            "Trainable params: 2,104,861\n",
            "Non-trainable params: 20,024,384\n",
            "_________________________________________________________________\n"
          ],
          "name": "stdout"
        }
      ]
    },
    {
      "metadata": {
…
